data.pth (torch, 9343 bytes, 6 tensors)

l1.weight f4 [8, 137]
000000 8f c5 ab be b6 b2 99 3c 54 2d 05 3e 62 1a 3f 3f
       -0.33549163 0.018761974 0.13005573 0.7464963
000010 57 e0 05 3f ce 0a 81 be 16 79 08 bf 42 17 a6 3f
       0.5229544 -0.25203556 -0.5330976 1.2975848
000020 f2 e4 b7 3f ef 05 fa bd e9 09 11 bf b0 f9 32 bf
       1.4366744 -0.12208163 -0.56655747 -0.6991224
000030 51 a4 22 be 74 3c 6b bf 03 c4 8e be 3d 3a e6 be
       -0.15882994 -0.9188912 -0.2788392 -0.44966307
000040 c0 20 af 3f b5 53 a9 3f 92 81 05 bf fb 82 7d 3f
       1.368187 1.322867 -0.52150834 0.99027985
000050 b4 8f 23 bf f8 78 02 3f 99 62 18 3f 38 0b ed bc
       -0.6389115 0.50965834 0.5952545 -0.028936014
000060 b6 27 3f 3f 9a 13 07 3f 88 f4 91 be be 11 40 3f
       0.7466997 0.52764285 -0.28506875 0.7502707
000070 69 6a c9 bc 3f 7c 93 3f e2 ec 10 bf 72 5a 3e 3f
       -0.024586873 1.1522292 -0.56611454 0.7435676
000080 0e f9 4f 3f a0 be 9c 3f b0 42 85 3f b1 33 90 be
       0.812394 1.2245674 1.0410976 -0.28164437
000090 95 14 48 be 3e 94 e4 be aa 2c e6 3e 53 4e 0b bd
       -0.19539101 -0.4464435 0.4495595 -0.034010243
0000a0 cb 2b 4d 3f 7f 32 9f be ee da a8 be 6f e9 12 bf
       0.8014495 -0.31093213 -0.3297953 -0.5738744
0000b0 9e da 00 3e 37 a1 d6 3a 70 25 11 bf d0 31 a3 be
       0.12583396 0.001637495 -0.5669775 -0.3187394
0000c0 1d e9 10 bf 50 e9 10 bf 9e 67 80 3e d8 2a 89 3f
       -0.566057 -0.56606007 0.25079054 1.07162
0000d0 d1 df 86 be 2c 5e c8 bd 50 9e 21 3f 15 d8 a5 bf
       -0.26342633 -0.09783587 0.6313219 -1.2956568
0000e0 eb f3 98 be 7a 8a 0f bf d8 54 14 3f a8 ce 86 be
       -0.29873595 -0.56070673 0.5794196 -0.2632954
0000f0 e4 f7 a7 be b2 be 9b 3f 4a 2c e8 bc c0 6f b2 3f
       -0.32806313 1.216757 -0.028341431 1.3940353
000100 df a1 0d be c6 71 34 3f c4 f5 93 3e 16 b2 88 be
       -0.1383128 0.70486104 0.28898442 -0.2669837
000110 73 47 70 be 35 5f 59 3f 61 d4 f4 3d 9b f6 69 be
       -0.23464756 0.849109 0.119545706 -0.22847979
000120 db d9 f7 3e 8d 2f 11 bf 44 04 eb be ce 48 c9 3f
       0.48408398 -0.5671318 -0.45901692 1.5725343
000130 91 bc 89 be f5 6a 82 3f 5f 07 3d 3f e3 bd 8c be
       -0.26901677 1.0188891 0.7383937 -0.27488622
000140 9c af 10 3f df 9b 97 be 39 1e 11 bf 3b 11 15 3f
       0.5651796 -0.29611108 -0.5668674 0.58229417
000150 cb 00 0e 3f 64 c2 a1 be d3 37 33 bf a8 2c e9 3e
       0.5546996 -0.3159362 -0.70007056 0.45541883
000160 dd ff ad be 3a 45 bf be d2 ab 3d 3f 8d 55 c4 be
       -0.3398427 -0.37357503 0.740903 -0.3834652
000170 2e 0a 65 bd 6f 2a e4 be ad 17 03 bf 66 67 ba 3c
       -0.05591791 -0.44563624 -0.51208 0.022754382
000180 e3 4c c3 be 54 1a 11 bf 2d ec 10 bf 70 03 11 bf
       -0.38144597 -0.566808 -0.56610376 -0.5664587
000190 a8 23 94 3f 56 4b 3a bf 9c 35 20 3f 91 e3 d5 3b
       1.1573381 -0.72771204 0.625818 0.006527372
0001a0 07 20 67 3f aa 78 1a bf c8 a4 8c be 7d e3 22 bd
       0.90283245 -0.6034037 -0.27469468 -0.03976773
0001b0 c6 cc 9d 3f c3 7b 42 be 01 5f 9d be 65 1b 8c 3f
       1.2328117 -0.18992524 -0.30736545 1.094586
0001c0 56 c9 98 3f dd bc 04 3f 06 c5 e0 be 6c b8 f0 be
       1.1936443 0.5185068 -0.43900317 -0.47015703
0001d0 9c 26 c7 be 76 e2 8f bc d1 71 cf be 2f 12 e5 be
       -0.38896644 -0.01756404 -0.40516523 -0.44740435
0001e0 b9 9a ac bd 8c 6c 32 3f 52 48 9c be c1 5a 3f be
       -0.084279485 0.6969688 -0.30523926 -0.18686964
0001f0 24 ef 92 be b3 26 10 bf 04 a8 22 3e 14 12 71 be
       -0.28698075 -0.5630905 0.15884405 -0.23542053
000200 21 c1 0a 3f 2a 3d 83 be d0 73 fa 3e 65 4b 11 bf
       0.5420094 -0.25632602 0.48916483 -0.5675567
000210 25 c5 8c be e1 fc 32 bf ed f4 8e 3f 77 51 48 3f
       -0.2749416 -0.6991711 1.1168495 0.78249305
000220 60 b8 55 3f d6 74 f6 3e 18 15 10 3f b1 81 57 bf
       0.8348446 0.48136014 0.56282187 -0.8418227
000230 e6 7c 00 3e a0 92 c0 be 88 1e 46 3f 8e fa bc 3e
       0.12547645 -0.37611866 0.77390337 0.36909908
000240 76 df 90 be fb cf d5 be d3 92 68 3e 81 b4 dc 3e
       -0.28295487 -0.4176024 0.22712259 0.43106464
000250 24 bc 41 3f 69 23 e4 3e 96 39 5d bf 4d 31 33 3f
       0.75677705 0.44558266 -0.86415994 0.699971
000260 65 3d 9b 3f ca 15 22 bf 62 e8 27 bf cb 6a b6 3f
       1.2128111 -0.633145 -0.65588963 1.4251341
000270 e1 f0 67 be 11 83 78 3f ba 85 a1 3e cc 43 04 3c
       -0.22650482 0.9707499 0.31547338 0.008072805
000280 75 ed 21 3f 9f 53 36 bf c4 c1 a8 3e 9b bd be 3d
       0.63252956 -0.71221346 0.3296033 0.09313508
000290 b3 38 3f bf 23 8b 51 3e 9e 70 c1 be c1 66 55 3f
       -0.7469589 0.20463233 -0.37781233 0.83359915
0002a0 19 d8 3c bf 40 8b bb 3d c8 ac c9 be 6a f2 dd 3d
       -0.7376724 0.09157419 -0.39389634 0.108372524
0002b0 b6 20 bb 3e 21 c6 1d 3f 21 43 97 3f 8e d3 64 bf
       0.36548394 0.61630446 1.1817361 -0.89385307
0002c0 5c 4b ba be df bf 5b be 5a 01 c7 3e db c7 d9 3e
       -0.3638562 -0.21459912 0.3886822 0.4253529
0002d0 fb f4 93 bf da ef 17 3f e2 91 07 bf 9d 28 ec 3e
       -1.1559137 0.5935036 -0.52956975 0.46124735
0002e0 11 c8 b1 3e 18 3b 07 3f 6f 72 f1 3e fb 77 9d 3e
       0.3472295 0.52824545 0.47157618 0.307556
0002f0 85 e8 09 bf 9a 2c 85 3e 0f 5f f8 be 1a 71 6a 3d
       -0.5387042 0.2601059 -0.48510024 0.05723677
000300 83 e6 e8 3e 4e 72 a0 be 34 08 90 be 5f 07 56 be
       0.45488366 -0.31337208 -0.28131258 -0.2090125
000310 2a d5 00 3d dd 6a 5c 3d 0e 59 f1 be 22 75 ff 3e
       0.03145329 0.05381285 -0.47138256 0.49894053
000320 e1 6f d9 3e 83 93 38 3f 69 27 b3 3d 77 88 f3 3d
       0.4246817 0.72100085 0.08747751 0.11891263
000330 c6 8b a2 bd b2 2d 4d 3e fb 28 ff be 8d 75 1e 3f
       -0.07936816 0.20036963 -0.49835953 0.6189812
000340 2b 89 a8 3e bd 65 18 be e9 0f ba 3e 01 14 a9 3f
       0.3291715 -0.1488256 0.36340263 1.320923
000350 e5 b1 46 bf de f5 30 3e 7d 84 c5 3d 88 60 01 be
       -0.77615196 0.17281291 0.09644411 -0.1263448
000360 57 a9 0d 3f cd f4 e2 bd e3 3c 1e bf 76 45 a2 3f
       0.5533652 -0.11081848 -0.61811656 1.2677448
000370 7a 2b b5 3e f3 f7 d1 3e 1a 73 ce bd 44 56 a2 3c
       0.35384732 0.41009483 -0.10080548 0.019816525
000380 66 ef c2 be bf d8 b6 3e 40 5a 13 3d 9c 0a 39 bf
       -0.38073272 0.3571224 0.03597474 -0.72281814
000390 db 5d 3e bd 43 c9 9f 3e 53 23 32 bf 9d 9d ad 3f
       -0.046476226 0.31208238 -0.6958515 1.3563725
0003a0 20 f6 0a 3f 56 13 6e 3f 83 d7 9c 3f 20 06 9c 3f
       0.54281807 0.92998254 1.2253269 1.2189369
0003b0 fa f5 a4 3f 95 4c 9e 3f 8a b5 49 3f 3f a1 53 be
       1.2887566 1.2367121 0.7879263 -0.20666979
0003c0 e1 ee ce 3e cb 66 c1 be 17 84 ad 3f f2 59 1b be
       0.40416625 -0.37773737 1.3555936 -0.1517103
0003d0 2a f0 de be e7 99 97 be 3b c9 15 3f 1d 22 ec 3e
       -0.43542606 -0.29609606 0.5851018 0.46119776
0003e0 fb e1 03 3e d0 d9 5e be 52 c2 f0 be 3b 97 9c 3f
       0.12879173 -0.21762776 -0.47023255 1.2233652
0003f0 6a f5 dd 3f 95 e9 c7 3e 69 4b e9 3e 5c 38 ee 3e
       1.734052 0.39045396 0.45565346 0.46527374

l1.bias f4 [8]
000000 18 9e 0f 3f f8 fb 92 3f e0 01 4b 3f 13 09 66 3f
       0.56100607 1.1483145 0.79299736 0.89857596
000010 c7 2e 9d 3f d1 4a 5d 3f 0c 43 aa 3f 59 81 32 3f
       1.22799 0.86442286 1.3301711 0.6972862

l2.weight f4 [8, 8]
000000 00 4c a3 bc 8c 27 ea 3d 00 6c a4 b9 51 61 94 be
       -0.0199337 0.11433324 -0.00031360984 -0.28980497
000010 26 ad 36 3e 18 e8 b1 be 2c 0d 71 be 8c d6 f2 3d
       0.17839488 -0.34747386 -0.23540181 0.11857328
000020 30 93 11 40 b2 5f bd bf 28 e1 7e bf 5a d9 15 40
       2.2746086 -1.4794829 -0.9956231 2.341391
000030 77 ce 3b 3f 41 eb 04 bf 2b 14 9b 3f c3 7d 22 3f
       0.73361915 -0.5192147 1.211553 0.6347315
000040 13 9c d5 bf 64 86 97 3f 2a b2 12 3f e5 3c 41 3f
       -1.6688255 1.1837888 0.57303107 0.7548354
000050 38 fb a6 3e 1f 72 f4 bf 7a 97 1c 40 ae 16 62 bf
       0.3261354 -1.9097327 2.4467454 -0.88315856
000060 ab dc 25 3e d8 a8 a2 be b6 42 b5 3d 35 4e c3 be
       0.1619746 -0.31769443 0.08850615 -0.38145605
000070 b7 df df be 5e f5 08 3e 89 ec 52 3e 4c 76 17 be
       -0.43725368 0.1337485 0.20598044 -0.1479122
000080 1a 7e b4 be 1f 71 a8 3f fe 42 9d 3e 4e 35 30 bf
       -0.35252458 1.3159522 0.30715173 -0.68831336
000090 4a bf 2e 40 c2 d3 4a 40 cc e6 64 3f 55 cd 03 c0
       2.7304254 3.1691747 0.8941467 -2.0594075
0000a0 ad 96 c8 bf e5 cd c2 3e 9d 58 79 bf f9 c7 58 3f
       -1.5670983 0.3804771 -0.9740084 0.84680134
0000b0 c8 a5 d6 3f f5 1a 2b 3f eb 6f fb be e2 1e 41 3f
       1.6769342 0.6683801 -0.49108824 0.7543775
0000c0 cb 0d 36 be 06 91 72 be 8a a6 68 3e 50 0e ce 3d
       -0.17778699 -0.23688135 0.2271978 0.10061324
0000d0 fa 45 23 be 1b 5e 25 be b5 1e b3 be b0 e6 af bc
       -0.15944663 -0.1614918 -0.34984365 -0.021472305
0000e0 59 f0 1c 3f 80 cf 04 40 b3 fa 26 40 fd 53 c7 3f
       0.6130424 2.0751648 2.6090515 1.5572506
0000f0 b8 d4 86 bf 69 05 8a bd ca b0 00 3d a5 07 36 40
       -1.0533667 -0.06739313 0.0314186 2.8442166

l2.bias f4 [8]
000000 46 32 a5 be b2 01 41 3f 07 76 18 3f d2 7f b3 be
       -0.32264918 0.7539321 0.59555095 -0.35058457
000010 c6 32 5e 3f 38 5f cf 3e 41 22 9c be 7e 41 d2 3e
       0.86796224 0.40502334 -0.30494884 0.41065592

l3.weight f4 [21, 8]
000000 95 c2 29 be fb 99 95 be 98 16 17 c0 55 0c a9 3c
       -0.16578133 -0.2921904 -2.360754 0.020635763
000010 63 22 0f 3f d3 c8 d8 3f e5 7c 85 be 2a db 67 c0
       0.55911845 1.6936287 -0.2607185 -3.6227517
000020 00 6f af 3c 2f c3 d1 bf c6 4e 29 bf 84 24 02 3d
       0.021415234 -1.638769 -0.66135824 0.031773105
000030 6b 1b ea 3e 9c b7 49 bd 08 e8 60 3d 17 d8 65 3d
       0.45724043 -0.04924737 0.054908782 0.056114282
000040 c6 97 29 3e 89 d0 4c 3f ad ca 5b c0 a7 b2 b3 bd
       0.16561803 0.800057 -3.4342453 -0.087743096
000050 e6 1b a7 3d 55 d0 6b bf a2 17 00 be 62 2e 17 bf
       0.08159618 -0.92114764 -0.12509015 -0.5905515
000060 97 53 7f be ee f1 89 3f 23 2e 97 bf 27 07 00 3a
       -0.2493423 1.0776956 -1.1810955 0.0004883878
000070 06 39 76 3d 12 05 a4 bf 3f 72 a7 3e c4 2d 24 c0
       0.060112976 -1.2814047 0.3270435 -2.5652933
000080 6f 22 88 3e 43 ce b4 3e 6a d2 c5 be cf 2f 37 be
       0.2658877 0.35313615 -0.38637096 -0.17889331
000090 66 a9 69 c0 f6 6c 59 c0 df 7b 95 be 6c bf 17 3f
       -3.6509643 -3.3972754 -0.2919607 0.5927646
0000a0 26 e7 1b 3e f6 af fb bf 94 d4 6a 3f 52 65 14 be
       0.15224895 -1.9663074 0.9173062 -0.14491776
0000b0 44 7e 0e be 8c 65 06 c0 f5 c4 ad 3e 91 67 a1 3e
       -0.13915354 -2.099948 0.3393933 0.31524327
0000c0 18 94 e4 bd d4 de ce 3e fe 67 5e 3f 57 b2 f0 3d
       -0.11161059 0.4040438 0.8687743 0.117527656
0000d0 03 62 8e be fc 90 03 c0 a4 d3 0e 3e f5 47 0e c0
       -0.27809152 -2.0557241 0.13947922 -2.223142
0000e0 28 50 8d 3d dd 6b 24 bf 46 09 86 3f 95 f7 61 3e
       0.06900054 -0.64227086 1.047158 0.22067101
0000f0 97 ed a0 be 5e 81 50 bf 1d 39 b3 3e 45 80 80 be
       -0.31431267 -0.814474 0.3500451 -0.25097862
000100 8c 4c 00 3e 85 bb 38 3f df 1f 3a be d9 82 78 3d
       0.125292 0.7216113 -0.1817622 0.06067166
000110 70 88 06 bf 98 0b 7b c0 1b 03 a5 3e 31 a1 47 be
       -0.5255194 -3.9225826 0.32228932 -0.19495083
000120 74 ac 57 be eb 88 30 bf 07 71 2f 3f fc dc 44 3d
       -0.2106188 -0.6895892 0.6853184 0.04806231
000130 32 bc 10 c0 ba 87 8b bd 2b 77 a6 3e e5 08 1c 3f
       -2.2614865 -0.06812997 0.32512793 0.6095107
000140 d6 05 7c be c6 5f 08 3f 40 06 1d 3d fd 7c 7e 3e
       -0.24611601 0.5327114 0.03833604 0.24852367
000150 06 c3 66 bf 11 a3 a1 3f 08 41 cb 3d 6f 5d c0 bf
       -0.9014133 1.2627889 0.09924513 -1.5028514
000160 36 df 2f 3e 6d 5f 94 bf 78 36 34 bf ba b5 a4 be
       0.17174992 -1.1591622 -0.7039561 -0.32169896
000170 e7 0c 0a bf 5d 4c 60 c0 bf 39 77 be 31 f4 7f 3f
       -0.5392594 -3.5046608 -0.24143122 0.9998198
000180 ce 17 43 3e 4a 08 cd 3e 51 fc 7b c0 e1 db 7d be
       0.1905205 0.40045387 -3.9372752 -0.24790908
000190 74 91 69 3f 6b 77 f2 be 30 43 fa bd 71 67 df bf
       0.9123757 -0.47356734 -0.12219846 -1.7453443
0001a0 5b af 04 be 91 ff 14 3f 2e dd 49 c0 26 6a 3a be
       -0.12957518 0.58202463 -3.1541247 -0.18204555
0001b0 59 14 41 c0 4f 3d 5d c0 48 20 f0 3d ff 7e 49 3f
       -3.016867 -3.456867 0.11724907 0.78709406
0001c0 03 a2 a9 be c4 e8 db bd 24 90 48 c0 d0 08 40 3d
       -0.33131418 -0.10737756 -3.1337976 0.046883404
0001d0 0d 4f 7e bd 28 83 8c 3f 88 c8 a5 be 5c 15 b3 be
       -0.062087107 1.0977526 -0.32379556 -0.34977233
0001e0 e8 dc 46 bd 8b ac 42 3f 68 34 20 3f d9 19 87 3e
       -0.048550516 0.7604453 0.62579966 0.26386908
0001f0 4c 12 1d c0 ac 31 69 bf b1 42 ab be 52 dc 07 bf
       -2.4542418 -0.9109142 -0.3344932 -0.5307056
000200 50 42 f7 3d 69 2c 5a 3f 55 c4 0f c0 79 d7 98 be
       0.12073195 0.85224015 -2.2463582 -0.29851893
000210 5a cc e1 bf ff 05 e7 3e ce a1 2d 3e 41 48 bd 3d
       -1.7640488 0.45121762 0.16956255 0.09242297
000220 bd 51 a7 3e 05 df 12 c0 b1 2a 3c 3f b0 c6 3e 3e
       0.3267955 -2.294862 0.7350264 0.18630481
000230 77 41 29 3f 57 8e 31 bd 50 a0 a8 3c 97 b6 9b bf
       0.66115516 -0.043348636 0.020584255 -1.2165097
000240 7e 82 17 3e 0b 3d 3c c0 e3 0f b3 bf 01 cc 97 3e
       0.14795873 -2.9412258 -1.3989223 0.2964783
000250 5d ee 51 3f f3 0f 9b 3f a0 bf 84 bd d2 c0 8d bf
       0.8200434 1.2114242 -0.06481862 -1.1074469
000260 60 e2 02 be 92 1e 3f c0 f0 93 7b c0 f2 78 43 bc
       -0.12781668 -2.9862409 -3.9309044 -0.011930691
000270 c2 6d 2e 3e 6c a6 8d 3d 49 a8 1f be 34 ec 1d 3f
       0.17034057 0.06916508 -0.1559154 0.6168854
000280 b1 19 80 3e 64 d3 db 3d 29 39 18 bf 45 30 66 3e
       0.250196 0.10733679 -0.5946222 0.22479351
000290 63 10 1d 3f 96 ca 58 bf 65 4a 89 be d2 9e 55 bf
       0.6135313 -0.8468412 -0.2681457 -0.83445466

l3.bias f4 [21]
000000 45 18 23 bc dd 1d 62 bf 00 38 ed be 17 f8 81 bd
       -0.009954517 -0.8832682 -0.46331787 -0.063461475
000010 f2 c4 71 3d 38 65 5c 3e d8 5f 2c bd a4 b7 74 3e
       0.059025712 0.21522987 -0.04208359 0.23898178
000020 ba 68 f6 bd 67 7b bf be bd 9f 2a bf 47 9d f3 3e
       -0.12031694 -0.37398836 -0.6664999 0.4758093
000030 6f 40 b1 3e a4 44 07 be c4 40 55 3e af 6f 2a bf
       0.3461947 -0.13209778 0.20825487 -0.66576666
000040 ae 7d f5 3e e3 98 cc be e1 57 11 3f 5d 11 62 3d
       0.47947448 -0.39960393 0.5677472 0.05519234
000050 11 4c 0a bd
       -0.03376395
